x_train shape: (60000, 1, 28, 28)
60000 train samples
10000 test samples
_________________________________________________________________
Layer (type)                 Output Shape              Param #
=================================================================
conv2d_1 (Conv2D)            (None, 32, 26, 26)        320
_________________________________________________________________
conv2d_2 (Conv2D)            (None, 64, 24, 24)        18496
_________________________________________________________________
max_pooling2d_1 (MaxPooling2 (None, 64, 12, 12)        0
_________________________________________________________________
dropout_1 (Dropout)          (None, 64, 12, 12)        0
_________________________________________________________________
flatten_1 (Flatten)          (None, 9216)              0
_________________________________________________________________
dense_1 (Dense)              (None, 128)               1179776
_________________________________________________________________
ortho_1 (Ortho)              (None, 128)               8256
_________________________________________________________________
dropout_2 (Dropout)          (None, 128)               0
_________________________________________________________________
dense_2 (Dense)              (None, 10)                1290
=================================================================
Total params: 1,208,138.0
Trainable params: 1,208,138.0
Non-trainable params: 0.0
_________________________________________________________________
